CoreML Conversion/WhisperEncoder.onnx (onnx, 740769 bytes, 2 tensors)

onnx::Conv_192 f4 [768, 80, 3]
00000000: 0040 863c 00c0 eb3b 00e0 39bb 0060 513c
00000010: 00a0 ae3b 00a0 80bb 0020 243c 00e0 5d3b
00000020: 00e0 bebb 00c0 c73b 00c0 cbbb 0000 f1bb
00000030: 00a0 80bb 00c0 51bc 0020 2cbc 0000 91bb
00000040: 00c0 ebbb 00e0 40bb 0060 e1ba 0060 36bb
00000050: 0040 213b 0000 aeb9 0020 d9bb 0020 2dbb
00000060: 00c0 3e38 0080 e9bb 00e0 58bb 0020 2a3b
00000070: 00a0 6ebb 00c0 a738 0060 95bb 0080 56bb
00000080: 0060 69b9 0060 d6bb 0040 74bb 00e0 233b
00000090: 0080 ae3a 00e0 a6bb 0060 e33a 0080 53ba
000000a0: 00a0 57bb 00c0 3e3b 0040 c63b 00a0 2dba
000000b0: 0000 4939 0020 1fba 0040 3bbb 0040 66bb
000000c0: 0000 b9ba 0020 38bb 00e0 0b3b 0040 acba
000000d0: 0020 48bb 00a0 0ab9 0000 793a 00c0 613b
000000e0: 0020 403b 0080 5b3a 00a0 9e3b 0060 a33b
000000f0: 00a0 183b 0060 6d3b 0040 9b3a 00a0 973b
00000100: 00e0 bf3b 0080 183b 0060 693a 0080 5a3b
00000110: 0040 503a 00a0 41ba 0060 b63a 0080 ceba
00000120: 00e0 813b 0040 bb3b 0040 87ba 00a0 6939
00000130: 00a0 aa3b 0000 693a 0080 d63a 00c0 c43b
00000140: 0020 493b 00e0 0cbb 0020 083b 00a0 893b
00000150: 0080 503a 0020 5bbb 00e0 2f3a 00a0 76ba
00000160: 00e0 53ba 0080 0b3b 00c0 553a 0040 203b
00000170: 0000 c73a 00c0 dc3a 00c0 c03b 0000 a23a
00000180: 00e0 833b 0020 9e3b 0000 483b 0000 4437
00000190: 0020 76ba 0080 70ba 00e0 41ba 00e0 32bb
000001a0: 0000 b53a 0020 b7bb 0020 dfbb 0020 6e3b
000001b0: 00a0 313a 0080 d1bb 0040 083a 0000 493b
000001c0: 0060 58bb 0020 2b3b 0020 f6ba 0040 29bc
000001d0: 00a0 c33a 0060 883a 0020 88bb 00c0 f23b
000001e0: 0060 ad39 0060 223a 00c0 073c 00e0 48bb
000001f0: 0000 bebb 0080 093b 00a0 44ba 0080 cebb
00000200: 00a0 5e3b 00e0 8a39 0040 42bb 0060 f8b9
00000210: 00c0 1e3b 0060 603b 0020 2c3b 00a0 71ba
00000220: 0060 193b 00e0 b33b 0080 e63a 0020 923b
00000230: 0020 c13b 0060 593b 00e0 d93b 0060 cc3b
00000240: 0020 5e3b 00c0 933b 0080 843b 00e0 663b
00000250: 00a0 733b 0080 273b 0020 2e3a 00c0 0fbb
00000260: 0060 ac3a 0020 fdba 0020 e3bb 0020 d4ba
00000270: 0080 aebb 0020 37bc 0040 73bb 0000 2cbc
00000280: 0040 79bc 00e0 f4bb 0080 a0bb 0000 76bc
00000290: 0080 1dbc 00c0 a3bb 0080 4fbc 00e0 ebbb
000002a0: 0080 13bc 00a0 62bc 0020 44bb 00e0 12bc
000002b0: 0060 2abc 00a0 ca3a 00e0 6eba 0020 a1bb
000002c0: 0060 9e3a 0020 35bb 0080 13bc 00a0 c2bb
000002d0: 00a0 2b3b 00e0 0fbc 0060 0dbc 0060 553b
000002e0: 0040 18bc 00e0 9cbb 0000 633b 0060 e3bb
000002f0: 0020 d23a 0020 f1ba 0000 03bc 0080 883b
00000300: 00c0 deba 0000 14bb 0020 4e3c 00a0 b2bb
00000310: 0080 13bc 0080 b23b 00a0 8cbc 0060 fbbc
00000320: 00e0 5bbc 00e0 22bd 00a0 94bd 00e0 44bd
00000330: 0080 83bd 0040 d9bd 0040 acbd 0060 8bbd
00000340: 00c0 dabd 0020 b3bd 0020 6dbd 0060 a8bd
00000350: 00c0 98bd 0040 cdbc 0060 d1bc 0060 10bd
00000360: 0060 a43c 0020 433d 0040 5b3c 0020 793d
00000370: 00e0 f43d 0020 863d 00c0 ba3d 00a0 253e
00000380: 0080 c43d 00a0 af3d 0040 1f3e 00c0 b23d
00000390: 0000 543d 00a0 dd3d 0000 463d 0020 df3c
000003a0: 0080 813d 0060 643c 0040 63bc 0020 443b
000003b0: 0080 c6bc 00c0 b4bc 0080 bfbb 0060 28bd
000003c0: 00a0 05bc 0060 aebb 00c0 b6bb 0020 5dbb
000003d0: 00a0 99bb 0020 dcba 00c0 253a 0080 ed3b
000003e0: 0040 263c 0000 443b 0040 3c3c 00c0 303c
000003f0: 0080 423b 0060 0c3c 0000 183c 0000 923b
0.01638794 0.007194519 -0.0028362274 0.012779236 0.005329132 -0.0039253235 0.010017395 0.0033855438
-0.0058250427 0.006095886 -0.0062179565 -0.0073547363 -0.0039253235 -0.012802124 -0.010505676 -0.004425049
-0.007194519 -0.002943039 -0.0017194748 -0.0027828217 0.0024604797 -0.00033187866 -0.006626129 -0.0026416779
4.5478344e-05 -0.0071258545 -0.0033092499 0.0025959015 -0.0036411285 7.998943e-05 -0.004558563 -0.0032730103
-0.00022256374 -0.006542206 -0.0037269592 0.002500534 0.0013313293 -0.005092621 0.0017347336 -0.0008068085
-0.0032901764 0.002910614 0.00605011 -0.0006623268 0.00019168854 -0.0006070137 -0.0028572083 -0.0035133362
-0.001411438 -0.0028095245 0.0021343231 -0.0013141632 -0.0030536652 -0.0001322031 0.0009498596 0.0034446716
0.0029315948 0.00083732605 0.004840851 0.0049858093 0.0023288727 0.003622055 0.0011844635 0.004627228
0.0058555603 0.0023269653 0.000890255 0.0033340454 0.0007944107 -0.00073862076 0.0013914108 -0.00157547
0.0039634705 0.0057144165 -0.0010318756 0.00022280216 0.005207062 0.00088882446 0.0016365051 0.0060043335
0.003068924 -0.002149582 0.0020771027 0.0041999817 0.0007953644 -0.0033435822 0.0006709099 -0.0009407997
-0.000808239 0.002128601 0.00081539154 0.002445221 0.0015182495 0.0016841888 0.005882263 0.0012359619
0.0040245056 0.004825592 0.0030517578 1.168251e-05 -0.00093889236 -0.0009174347 -0.00073957443 -0.002729416
0.0013809204 -0.0055885315 -0.0068092346 0.0036334991 0.0006775856 -0.0063934326 0.0005197525 0.0030670166
-0.0033016205 0.0026111603 -0.0018777847 -0.0103302 0.0014925003 0.0010404587 -0.0041542053 0.007408142
0.00033068657 0.00061941147 0.008285522 -0.0030651093 -0.00579834 0.0020980835 -0.00075006485 -0.00630188
0.003396988 0.00026488304 -0.0029640198 -0.00047373772 0.0024223328 0.0034236908 0.002626419 -0.0009217262
0.0023403168 0.0054893494 0.0017585754 0.004459381 0.0058937073 0.0033168793 0.0066490173 0.00623703
0.0033893585 0.004508972 0.004043579 0.003522873 0.0037174225 0.0025558472 0.00066423416 -0.002193451
0.0013151169 -0.0019311905 -0.006931305 -0.0016183853 -0.0053253174 -0.011177063 -0.0037117004 -0.010498047
-0.015213013 -0.007472992 -0.0048980713 -0.015014648 -0.009613037 -0.0049972534 -0.012664795 -0.0071983337
-0.009002686 -0.013832092 -0.00299263 -0.008964539 -0.010398865 0.0015459061 -0.0009112358 -0.004917145
0.0012083054 -0.0027637482 -0.009002686 -0.0059394836 0.0026187897 -0.008781433 -0.008628845 0.003255844
-0.009292603 -0.004787445 0.0034637451 -0.0069389343 0.0016031265 -0.0018396378 -0.0079956055 0.0041656494
-0.0016994476 -0.0022583008 0.012580872 -0.0054512024 -0.009002686 0.0054473877 -0.017166138 -0.030685425
-0.013420105 -0.039764404 -0.0725708 -0.048065186 -0.064208984 -0.1060791 -0.084106445 -0.0680542
-0.10681152 -0.08746338 -0.057891846 -0.082214355 -0.07458496 -0.025054932 -0.025558472 -0.035247803
0.020065308 0.04763794 0.013381958 0.060821533 0.11956787 0.06549072 0.09118652 0.16174316
0.095947266 0.085754395 0.15551758 0.08728027 0.051757812 0.10821533 0.048339844 0.027236938
0.06323242 0.013938904 -0.013870239 0.00299263 -0.024230957 -0.022064209 -0.005844116 -0.041107178
-0.008155823 -0.0053215027 -0.0055770874 -0.0033740997 -0.004688263 -0.0016794205 0.0006322861 0.007247925
0.010147095 0.0029907227 0.011489868 0.010787964 0.0029678345 0.00856781 0.009277344 0.0044555664

onnx::Conv_193 f4 [768]
00000000: 00c0 4a3e 0000 a03d 0000 b63d 00a0 073f
00000010: 0020 7c3e 00c0 8bbf 00a0 d5be 00e0 1a3e
00000020: 0020 71bd 0040 033f 00e0 03bf 00e0 8b3e
00000030: 0080 ae3c 0020 c3bd 0080 4a3c 0080 f43d
00000040: 00e0 81be 0000 383b 00a0 2d3e 00a0 843d
00000050: 0060 343d 00a0 1fbd 0080 00bc 0060 ab3d
00000060: 0000 2fc0 0020 c93c 0020 81be 0020 a33d
00000070: 0040 ad3c 0080 043e 00e0 c63d 0080 62bf
00000080: 0060 8f3d 0040 523c 0060 9fbf 00c0 1f3e
00000090: 0080 203e 0040 fe3c 0000 db3d 00a0 b13d
000000a0: 0040 e3bd 0060 613d 00a0 dd3d 0060 c8bc
000000b0: 0080 e7bc 0000 933e 00e0 323a 00e0 1e3e
000000c0: 00c0 da3d 00a0 123d 0060 aa3d 00e0 9b3a
000000d0: 0060 54bb 0080 1abd 0060 9bbf 0080 d93c
000000e0: 00a0 4c3d 0060 bc3d 00a0 883e 0000 32c0
000000f0: 00e0 72bf 0060 a63e 0040 aabc 00c0 8d3d
00000100: 00c0 6dbf 0080 7e3c 0060 a7bd 00c0 b7ba
00000110: 0080 123d 0080 023e 00a0 9f3c 00e0 a33c
00000120: 00a0 853e 0040 ecbc 0000 d93c 00c0 2dbf
00000130: 0040 debe 00c0 18c0 0040 7b3d 00a0 ccbc
00000140: 00c0 043d 00e0 573d 00e0 d33d 0020 753e
00000150: 00c0 003e 0060 9dbc 0080 0fbd 0040 1c3a
00000160: 0080 3ebe 0000 6f3d 0040 223d 0080 3ebd
00000170: 00c0 283e 0060 8cbf 0000 f93c 0080 f7bd
00000180: 0040 553d 0080 143e 0020 af3c 0080 903d
00000190: 0080 833b 00c0 36bf 0060 2d3c 0060 0d3d
000001a0: 00c0 1abf 0020 803e 0000 aa3d 0000 553e
000001b0: 0040 ad3e 0040 3dbf 00e0 883d 00a0 7d3d
000001c0: 00e0 193e 0080 203c 00e0 3b3d 0020 17c0
000001d0: 0060 65bd 0060 a9bc 00c0 90bd 0020 4fbc
000001e0: 0080 23bf 0040 7c3e 0060 b1bd 0040 3f3d
000001f0: 00c0 60bc 0020 c9bd 0040 703d 0000 f2bd
00000200: 00c0 50bc 0000 f4bd 0080 473c 0000 f73d
00000210: 0000 3fbd 0020 59be 0060 303d 0000 443c
00000220: 0080 19bf 0060 873d 0020 2abd 0020 e9bc
00000230: 0040 1b3d 0060 953d 0020 913d 0040 8f3d
00000240: 00a0 aabd 00c0 18bd 0040 ce3d 0020 213d
00000250: 00a0 f3bc 0020 1ec0 0040 a3be 0040 253e
00000260: 0080 8a3e 00c0 553d 0080 e33d 0020 333e
00000270: 0020 053d 00c0 8d3c 00c0 853e 0000 86bd
00000280: 0040 11bd 0040 98bf 0000 073d 0020 823e
00000290: 00c0 fbb9 0080 4f3c 0000 d83d 0000 aa3d
000002a0: 00a0 e33d 00a0 a03c 00e0 a23e 0060 843d
000002b0: 0020 7f3e 0000 23be 00e0 be3d 0020 89bb
000002c0: 00e0 d33c 0000 e4bd 00e0 3c3f 00c0 733e
000002d0: 0040 d6bd 00a0 7abd 00c0 563d 00a0 073d
000002e0: 0060 ba3c 0080 16be 0040 efbc 00e0 eb3d
000002f0: 0040 8abf 0040 953d 00e0 5ebd 00a0 d8be
00000300: 0000 973e 0080 9e3d 0020 123e 00a0 9b3d
00000310: 0000 8d3d 00c0 f83d 0060 4e3e 00a0 663c
00000320: 00a0 bbbd 00e0 e6bc 0060 32bc 0040 20bf
00000330: 00e0 833c 0060 44bd 0040 553d 0080 653d
00000340: 00a0 813e 0000 ae3d 00c0 a93d 0020 723d
00000350: 0020 243d 0020 02bd 0020 6d3c 0020 233d
00000360: 00a0 723d 0020 273e 0080 3f3e 00c0 9a3e
00000370: 0040 a3bf 00c0 8cbd 00e0 c33c 0000 633d
00000380: 0060 613d 0020 cb3c 00e0 3a3d 0020 033e
00000390: 00c0 ee3c 00e0 bc3c 0040 8cbc 0040 9f3e
000003a0: 00c0 c43d 00e0 1d3d 0000 b63d 0080 883e
000003b0: 00e0 813e 0060 c2bb 00a0 8ebc 00c0 5bbf
000003c0: 00c0 50be 00e0 643d 0060 06be 0080 993e
000003d0: 00a0 92bd 0080 c23d 00e0 053d 00e0 b8be
000003e0: 00c0 813e 0020 88bc 00a0 cbbd 0040 1bbe
000003f0: 0060 09bc 0020 b83e 0060 1abf 00e0 363c
0.19799805 0.078125 0.08886719 0.52978516 0.24621582 -1.0917969 -0.41723633 0.15124512
-0.05886841 0.5126953 -0.5151367 0.27319336 0.02130127 -0.09527588 0.012359619 0.119384766
-0.2536621 0.0028076172 0.16955566 0.0647583 0.044036865 -0.038970947 -0.007843018 0.0836792
-2.734375 0.024551392 -0.25219727 0.07965088 0.021148682 0.12939453 0.09710693 -0.8847656
0.070007324 0.012832642 -1.2451172 0.15600586 0.15673828 0.031036377 0.106933594 0.08673096
-0.110961914 0.055023193 0.10821533 -0.024459839 -0.028259277 0.28710938 0.000682354 0.15515137
0.10681152 0.03579712 0.08319092 0.0011892319 -0.0032405853 -0.037719727 -1.2138672 0.026550293
0.049957275 0.09197998 0.2668457 -2.78125 -0.94873047 0.32495117 -0.02078247 0.06921387
-0.92871094 0.015533447 -0.081726074 -0.0014019012 0.0357666 0.1274414 0.019485474 0.020004272
0.26098633 -0.028839111 0.026489258 -0.67871094 -0.43408203 -2.3867188 0.061340332 -0.024978638
0.032409668 0.052703857 0.10345459 0.23937988 0.12573242 -0.019210815 -0.03503418 0.00059604645
-0.18603516 0.05834961 0.039611816 -0.04650879 0.16479492 -1.0966797 0.030395508 -0.12084961
0.05206299 0.14501953 0.021377563 0.07055664 0.0040130615 -0.7138672 0.01058197 0.03451538
-0.6044922 0.25024414 0.08300781 0.20800781 0.3383789 -0.7392578 0.066833496 0.061920166
0.15026855 0.009796143 0.04586792 -2.3613281 -0.055999756 -0.02067566 -0.07067871 -0.012641907
-0.6386719 0.24633789 -0.08660889 0.046691895 -0.013717651 -0.09820557 0.058654785 -0.11816406
-0.012741089 -0.119140625 0.012176514 0.12060547 -0.04663086 -0.21203613 0.043060303 0.011962891
-0.5996094 0.066101074 -0.041534424 -0.028457642 0.037902832 0.07293701 0.07086182 0.06994629
-0.08331299 -0.03729248 0.10070801 0.03933716 -0.02973938 -2.4707031 -0.31884766 0.16137695
0.2705078 0.05218506 0.111083984 0.17492676 0.03250122 0.017303467 0.26123047 -0.06542969
-0.035461426 -1.1894531 0.032958984 0.2541504 -0.00048017502 0.012664795 0.10546875 0.08300781
0.11114502 0.019607544 0.31811523 0.06463623 0.24914551 -0.15917969 0.09320068 -0.004184723
0.025863647 -0.111328125 0.73779297 0.23803711 -0.10461426 -0.061187744 0.0524292 0.033111572
0.022750854 -0.14697266 -0.029205322 0.11517334 -1.0800781 0.07287598 -0.05441284 -0.4230957
0.29492188 0.07739258 0.1427002 0.07598877 0.068847656 0.12145996 0.20153809 0.014076233
-0.09161377 -0.028182983 -0.010887146 -0.62597656 0.016098022 -0.047943115 0.05206299 0.056030273
0.25317383 0.08496094 0.08288574 0.05911255 0.04006958 -0.0317688 0.014472961 0.03982544
0.05923462 0.16320801 0.18701172 0.3022461 -1.2753906 -0.068725586 0.023910522 0.055419922
0.055023193 0.024795532 0.04562378 0.12805176 0.029144287 0.02305603 -0.017120361 0.31103516
0.096069336 0.0385437 0.08886719 0.26660156 0.2536621 -0.0059318542 -0.017410278 -0.85839844
-0.20385742 0.055877686 -0.13122559 0.2998047 -0.07159424 0.0949707 0.032684326 -0.36108398
0.25341797 -0.016616821 -0.09942627 -0.15161133 -0.008384705 0.35961914 -0.60302734 0.011161804
